model.tflite (tflite, 545292 bytes, 32 tensors)

arith.constant f4 [3]
0.114385255 0.011908153 0.13133489
00000000: d142 ea3d 6a1a 433c a77c 063e

arith.constant1 f4 [16]
-0.12663345 0.07844766 -0.026898837 0.0045131193 0.041413687 0.07094957 0.08602604 -0.08309218
-0.029603338 0.055430815 0.09691499 -0.022194397 0.08825111 -0.031953376 0.072965816 0.07701749
00000000: 33ac 01be 2ba9 a03d f35a dcbc cae2 933b
00000010: 66a1 293d 024e 913d 6c2e b03d 3c2c aabd
00000020: b382 f2bc 6c0b 633d 5e7b c63d 06d1 b5bc
00000030: ffbc b43d 8be1 02bd 1a6f 953d 59bb 9d3d

arith.constant2 f4 [16]
-0.01827845 0.025914779 0.13619728 -0.025624108 0.029138789 0.090784624 0.0056295306 0.09306295
0.0094823735 -0.04161133 -0.08304691 0.24087664 0.039147582 0.057486214 -0.0025095814 0.070548885
00000000: b0bc 95bc 3b4b d43c 4d77 0b3e a6e9 d1bc
00000010: 78b4 ee3c 4aed b93d ed77 b83b ca97 be3d
00000020: f55b 1b3c a470 2abd 8014 aabd 5ea8 763e
00000030: 3759 203d aa76 6b3d ca77 24bb ef7b 903d

arith.constant3 f4 [16]
0.07668993 0.0065672286 0.107153416 -0.0058451947 0.040136795 0.108864285 -0.009117524 -0.038014937
0.06640699 -0.0301856 -0.022611126 0.027972236 -0.0074792644 0.021424513 -0.02408782 0.083371684
00000000: 9c0f 9d3d e831 d73b 4073 db3d 0c89 bfbb
00000010: 7b66 243d 3df4 de3d ab61 15bc 8db5 1bbd
00000020: 6300 883d cb47 f7bc f83a b9bc 0826 e53c
00000030: 9e14 f5bb 7682 af3c d253 c5bc c6be aa3d

arith.constant4 f4 [32]
-0.0059200837 0.06865542 0.088213 0.00963211 -0.010420005 -0.0072601894 0.033407394 -0.009117653
0.0020304925 -0.004862118 -0.01566023 -0.023437189 0.06439188 0.034057096 0.083286025 0.009582934
0.07207623 0.0007133661 0.05658838 0.03464798 -0.00070445053 -0.026477022 -0.0076500583 0.17902566
0.043118183 0.03142653 -0.006566862 0.05745163 0.022116216 0.01895184 0.07458067 -0.002065872
00000000: 43fd c1bb 369b 8c3d 04a9 b43d ffcf 1d3c
00000010: abb8 2abc e2e6 edbb 31d6 083d 3562 15bc
00000020: 0312 053b 6752 9fbb e249 80bc 59ff bfbc
00000030: e4df 833d 747f 0b3d dd91 aa3d bd01 1d3c
00000040: b49c 933d 3001 3b3a 38c9 673d 0aeb 0d3d
00000050: e0aa 38ba 57e6 d8bc 57ad fabb 8152 373e
00000060: b19c 303d 1bb9 003d d52e d7bb 6652 6b3d
00000070: 112d b53c e440 9b3c c0bd 983d 9563 07bb

arith.constant5 f4 [16]
0.02655755 -0.034288052 0.022555988 0.011980302 0.029398749 0.03786783 -0.013435474 -0.036092862
0.012493387 -0.048247762 -0.10109841 0.0003606695 -0.035294637 -0.015794555 -0.024751218 0.013850948
00000000: 388f d93c a171 0cbd 56c7 b83c 0749 443c
00000010: a5d5 f03c 4c1b 1b3d 7620 5cbc 1cd6 13bd
00000020: 10b1 4c3c 729f 45bd af0c cfbd 3e18 bd39
00000030: 1c91 10bd 9563 81bc 11c3 cabc 16ef 623c

arith.constant6 f4 [32]
0.003887751 0.028373701 -0.0054235426 -0.0065509267 0.037100665 0.04420642 -0.0021214448 0.01975357
0.08395341 -0.006549263 0.01995397 -0.012408609 0.007149955 -0.010779579 -0.0020317645 -0.027281314
-0.008549831 -0.023057967 -0.011422084 -0.01546068 -0.023226617 -0.0032050593 -0.0012613666 0.005792564
-0.01305027 -0.014991505 0.03606384 0.0060976064 -0.016919693 -0.029265959 0.013272314 0.029194072
00000000: a3c9 7e3b f76f e83c f9b7 b1bb 28a9 d6bb
00000010: def6 173d cb11 353d f007 0bbb 3dd2 a13c
00000020: c4ef ab3d 339b d6bb 8276 a33c 7a4d 4bbc
00000030: 2b4a ea3b d59c 30bc 5a27 05bb 107d dfbc
00000040: 9714 0cbc 10e4 bcbc b123 3bbc cb4e 7dbc
00000050: bf45 bebc f90b 52bb 7154 a5ba 8ccf bd3b
00000060: cdd0 55bc ee9e 75bc adb7 133d 6ece c73b
00000070: 2b9b 8abc 2abf efbc 1f74 593c 6828 ef3c

arith.constant7 f4 [64]
0.009616695 -0.006779067 1.7451282e-05 -0.008592988 -0.0023876654 -0.006299322 0.0013554428 0.008988033
0.00853218 0.012338533 -0.012413383 -0.007980911 0.0026856374 -0.010821355 -0.0014549916 0.027175212
-0.0058521065 -0.0060144886 -0.0062961155 -0.0018520989 0.023629444 -0.0002556093 0.022078197 -0.015393361
0.015712297 -0.00095965463 -0.009896086 -0.008389178 0.002478737 0.028959598 0.006153873 0.008964163
0.023049315 5.1324496e-06 0.00084827084 0.015568449 -0.009641251 0.0009720283 0.0002735509 -0.00996907
-0.038594514 -0.006787323 -0.0067207282 -0.00921207 0.008914365 -0.0068897703 -0.003186988 -0.013277366
0.011038482 0.02914988 -0.0036980517 0.009089647 0.028711159 -0.0065800883 -0.008537144 -0.022067543
-0.0058200397 -0.008081977 0.0045202784 0.0006641242 0.014980283 -0.008919023 -0.00812546 -0.008245495
00000000: 588f 1d3c f022 debb 5864 9237 9bc9 0cbc
00000010: 617a 1cbb 8b6a cebb 1da9 b13a 8b42 133c
00000020: 8fca 0b3c 8f27 4a3c 8161 4bbc 5ec2 02bc
00000030: 8501 303b 0d4c 31bc 6bb5 beba 8d9e de3c
00000040: 07c3 bfbb 3015 c5bb a54f cebb 20c2 f2ba
00000050: 8992 c13c 4d03 86b9 56dd b43c 7034 7cbc
00000060: 13b7 803c 5591 7bba 3123 22bc c372 09bc
00000070: 4e72 223b ae3c ed3c 6ea6 c93b 6dde 123c
00000080: ebd1 bc3c 6837 ac36 7e5e 5e3a cf12 7f3c
00000090: 56f6 1dbc b7cf 7e3a 616b 8f39 4f55 23bc
000000a0: 4815 1ebd 3168 debb 8e39 dcbb 39ee 16bc
000000b0: 8f0d 123c 95c3 e1bb c9dc 50bb 4f89 59bc
000000c0: c0da 343c bbcb ee3c 035b 72bb beec 143c
000000d0: aa33 eb3c c89d d7bb 61df 0bbc fec6 b4bc
000000e0: 08b6 bebb 456a 04bc d81e 943b 9f18 2e3a
000000f0: dc6f 753c 1821 12bc a620 05bc 1d18 07bc

arith.constant8 f4 [16]
0.10269328 0.025972052 0.11707396 -0.007282201 -0.0004804982 0.003935372 0.04102236 0.092772804
0.055482905 -0.012239098 -0.0101983305 -0.008359797 -0.010804218 0.057323124 -0.0075195446 0.09496466
00000000: db50 d23d 57c3 d43c 79c4 ef3d 889f eebb
00000010: 60eb fbb9 4bf4 803b 1007 283d abff bd3d
00000020: 0b42 633d 7f86 48bc e616 27bc 88f7 08bc
00000030: 2d04 31bc a7cb 6a3d 8366 f6bb d57c c23d

arith.constant9 f4 [16]
0.060331862 -0.020608643 0.10762527 0.026292404 0.04473015 0.06531301 0.04885521 0.08958789
0.06075226 -0.005764192 0.016059728 -0.04132337 0.084659964 -0.017338298 0.026196707 0.052996367
00000000: 8b1e 773d 75d3 a8bc a36a dc3d 2b63 d73c
00000010: f636 373d d4c2 853d 671c 483d db79 b73d
00000020: 5dd7 783d 8ce1 bcbb b18f 833c b242 29bd
00000030: 3462 ad3d 0c09 8ebc 7a9a d63c b812 593d

arith.constant10 f4 [64]
0.053401608 0.0502363 0.05450363 0.06366832 -0.029787151 0.029949857 0.011933442 0.04063249
-0.007679827 -0.01919467 -0.026696693 0.021348238 0.19298993 0.004777181 -0.01029862 0.00778324
0.011476252 0.07731962 -0.011025964 0.060186043 0.05001807 -0.0404482 0.0012869867 0.06929453
0.020034438 0.01694389 0.12079103 0.0044175675 0.10985736 -0.008097133 0.031496286 0.021481717
-0.013387315 0.07379098 0.13624702 0.04896419 0.020687344 0.00010129387 0.012271587 0.017587384
0.037358683 0.0037323316 0.026809188 0.027125964 -0.0237799 0.03402115 0.012084141 -0.013562245
0.0227924 -0.0077123474 0.0060615777 0.04668301 -0.015920082 0.0986831 0.021834852 0.037505697
0.022579934 0.02635404 0.027071103 0.000555378 0.066008866 0.12401103 0.02390949 -0.024696602
00000000: a5bb 5a3d 94c4 4d3d 333f 5f3d 8964 823d
00000010: 2f04 f4bc 6759 f53c 7c84 433c 416e 263d
00000020: 0fa7 fbbb 243e 9dbc 06b3 dabc 80e2 ae3c
00000030: 279f 453e e689 9c3b 8bbb 28bc 8d0a ff3b
00000040: e406 3c3c c059 9e3d 3fa6 34bc a485 763d
00000050: bfdf 4c3d 03ad 25bd 1cb0 a83a 4aea 8d3d
00000060: 431f a43c eacd 8a3c 4a61 f73d 3ec1 903b
00000070: e5fc e03d d6a9 04bc 4002 013d 6dfa af3c
00000080: 7856 5bbc ba1f 973d 5784 0b3e ad8e 483d
00000090: 8178 a93c bb6d d438 c40e 493c 6b13 903c
000000a0: 6b05 193d 229a 743b f19e db3c 4537 de3c
000000b0: 11ce c2bc c359 0b3d 90fc 453c 2e34 5ebc
000000c0: 21b7 ba3c dcb7 fcbb 33a0 c63b af36 3f3d
000000d0: d56a 82bc 5d1a ca3d 01df b23c 939f 193d
000000e0: 8ef9 b83c 6de4 d73c 38c4 dd3c c996 113a
000000f0: a82f 873d 7ff9 fd3d d6dd c33c 8750 cabc

arith.constant11 f4 [64]
0.0055097723 0.008579771 0.02236277 -0.0076567135 0.02732752 0.027590947 0.009459596 0.047412794
0.04226462 -0.037878487 0.033440296 0.0264256 0.047952212 -0.0045465874 -0.029091464 0.02324116
-0.03740925 0.05529453 -0.045644835 0.02019267 0.06785653 0.08520498 -0.028258026 0.009596613
0.038554754 0.017808639 0.07486291 0.038560323 0.08248737 0.016297804 0.013551522 0.0286697
0.016015226 0.016650314 -0.016923979 -0.0063830735 0.07762376 0.062402472 -0.036939014 0.034277104
-0.00037528377 0.019092333 0.047444817 0.027422361 0.0027482738 0.04056656 0.035827953 -0.0080844695
0.028929004 -0.07410707 0.0551652 0.041561455 -0.009541565 0.11233455 0.030694129 0.03675102
0.018436722 0.028436081 0.030886408 0.0477613 0.0049784104 0.18221773 0.007253662 -0.013681743
00000000: 528b b43b 2b92 0c3c 2132 b73c 2be5 fabb
00000010: f7dd df3c 6906 e23c 6cfc 1a3c eb33 423d
00000020: ab1d 2d3d 7926 1bbd b1f8 083d 807a d83c
00000030: 8a69 443d 8afb 94bb 3951 eebc 3f64 be3c
00000040: 713a 19bd 847c 623d 14f6 3abd 196b a53c
00000050: 5df8 8a3d f37f ae3d 607d e7bc 1d3b 1d3c
00000060: 97eb 1d3d 6ce3 913c ba51 993d 6ef1 1d3d
00000070: 23ef a83d f982 853c 3407 5e3c b8dc ea3c
00000080: 5d32 833c 3d66 883c 28a4 8abc 1a29 d1bb
00000090: 35f9 9e3d bc99 7f3d 5d4d 17bd 2666 0c3d
000000a0: bcc1 c4b9 8667 9c3c 7f55 423d dca4 e03c
000000b0: 621c 343b 1f29 263d 55c0 123d b974 04bc
000000c0: 85fc ec3c 73c5 97bd e8f4 613d 583c 2a3d
000000d0: 3954 1cbc a80f e63d 4172 fb3c 3d88 163d
000000e0: 9c08 973c c9f2 e83c 7e05 fd3c 5aa1 433d
000000f0: ef21 a33b 4997 3a3e 21b0 ed3b 6429 60bc

arith.constant12 f4 [32]
0.023713332 0.013596662 -0.037860673 0.021575717 0.021991376 0.021945363 0.03469897 0.052071452
-0.08550228 0.051516604 -0.008568043 0.03965103 -0.0038837169 0.022602474 0.010004976 0.020909457
0.017795004 0.053187378 -0.0049992893 0.09079991 -0.0054233354 0.017252838 0.0011873409 0.04624776
0.08533992 0.021153715 0.023888769 0.030350465 0.025440477 -0.007780294 0.051427852 -0.011393963
00000000: 7642 c23c 89c4 5e3c cb13 1bbd 8fbf b03c
00000010: 4227 b43c c3c6 b33c 8220 0e3d e048 553d
00000020: d21b afbd 1303 533d fa60 0cbc 1e69 223d
00000030: f585 7ebb d328 b93c e9eb 233c 4f4a ab3c
00000040: d4c6 913c 02db 593d 14d1 a3bb 4ef5 b93d
00000050: 3cb6 b1bb d355 8d3c 8da0 9b3a 4b6e 3d3d
00000060: b2c6 ae3d 8e4a ad3c 61b2 c33c 8aa1 f83c
00000070: 8c68 d03c d6f1 febb 03a6 523d bfad 3abc

arith.constant13 f4 [64]
0.030503932 0.0035390311 0.027687145 0.07215984 -0.04057167 0.06131384 0.044005793 0.080360316
-0.035809956 -0.038625646 -0.004648478 0.0527257 0.13342664 0.05695116 -0.0069187246 0.030109504
0.011267388 -0.005850442 0.003464295 0.025941402 0.0732791 0.18122245 0.02082375 0.04123957
0.061872754 0.061587885 0.032938097 0.07188848 0.11021685 0.010033879 0.07449492 0.053296104
0.011729762 0.05435542 0.19594182 0.035257865 0.011069299 0.03411253 0.04217375 0.02643489
0.04773711 0.006347031 0.071984656 0.052117437 0.05259796 0.08845229 0.07396012 0.002914468
0.028010355 -0.011427481 0.06311782 0.061916236 -0.03255464 0.1388638 0.058385517 0.007993818
0.0657944 0.0849632 -0.020911558 0.0010396204 0.06529517 0.17063436 0.059019696 -0.06468151
00000000: 62e3 f93c 17ef 673b 27d0 e23c 8ac8 933d
00000010: 7b2e 26bd 3924 7b3d 6b3f 343d f393 a43d
00000020: 76ad 12bd ed35 1ebd 4252 98bb e7f6 573d
00000030: fea0 083e 9f45 693d 78b6 e2bb 35a8 f63c
00000040: da9a 383c 11b5 bfbb 3a09 633b 1083 d43c
00000050: 5a13 963d 6192 393e 9296 aa3c d3ea 283d
00000060: 496e 7d3d 9443 7c3d 19ea 063d 443a 933d
00000070: 5fb9 e13d 2465 243c cb90 983d 044d 5a3d
00000080: 302e 403c caa3 5e3d f9a4 483e 8d6a 103d
00000090: 015c 353c 95b9 0b3d 62be 2c3d fc8d d83c
000000a0: fd87 433d c1fa cf3b b16c 933d 1879 553d
000000b0: f570 573d 7926 b53d 6778 973d a900 3f3b
000000c0: f975 e53c 543a 3bbc ea43 813d e19b 7d3d
000000d0: 0458 05bd 5032 0e3e a725 6f3d 81f8 023c
000000e0: 37bf 863d 3001 ae3d b74e abbc df43 883a
000000f0: 79b9 853d c6ba 2e3e a3be 713d bd77 84bd

arith.constant14 f4 [32]
0.017009115 -0.030081877 0.11125531 0.09813305 0.043576784 0.06521388 0.057089783 0.059173215
0.055364266 0.07814902 -0.0025659527 0.018389445 0.3066789 0.0068414463 0.028658252 0.0011657462
-0.00485742 -0.007807987 0.09199631 0.03530442 0.0072524427 0.08450913 0.03395352 0.009573585
0.047374714 -0.044715434 -0.033848703 0.033059698 0.052808363 -0.016941404 0.024490478 0.0064707818
00000000: b356 8b3c 456e f6bc d3d9 e33d fbf9 c83d
00000010: 927d 323d db8e 853d fad6 693d 9d5f 723d
00000020: a4c5 623d 980c a03d 8b29 28bb 76a5 963c
00000030: 0405 9d3e 362e e03b b6c4 ea3c f4cb 983a
00000040: fe2a 9fbb 24da ffbb 9068 bc3d 5e9b 103d
00000050: e6a5 ed3b 1f13 ad3d d912 0b3d 87da 1c3c
00000060: fd0b 423d 8827 37bd f0a4 0abd 9b69 073d
00000070: 954d 583d b3c8 8abc 41a0 c83c da08 d43b

arith.constant15 f4 [3, 3, 3, 16]
-0.31262574 -0.15377128 0.090330124 0.13451932 0.20045656 0.14405878 0.1043988 0.08713579
-0.051970344 -0.11937667 -0.14272298 -0.051803093 0.182081 0.027650848 0.02127832 -0.11672029
0.42180872 -0.10012926 0.06813926 -0.025567908 0.10569722 -0.10933255 0.18783605 -0.18503046
0.18016906 -0.05865575 -0.23911013 0.03123424 -0.054199703 -0.21487662 -0.013923971 -0.10103391
0.03325825 -0.0642444 -0.0019986057 0.100239545 0.0904735 -0.01799304 0.021307787 -0.16336253
-0.060596656 0.16194476 0.11931575 -0.0069335042 -0.007576452 -0.16181594 0.17790213 -0.16852973
0.02765116 -0.18300903 -0.06277396 0.111864075 0.04303865 -0.13379838 -0.08222952 -0.06755023
-0.05463129 -0.08298467 -0.1055098 -0.100983545 0.19048828 0.28952897 0.13565768 0.14597274
0.14444922 -0.2355056 0.012493146 0.09419881 -0.1044606 0.14268264 -0.0020308115 0.15137307
-0.022644 0.011479969 -0.109283276 0.05119634 0.055910327 0.012832233 0.22090961 0.10947256
0.015432413 0.07743645 -0.084569246 0.14811939 0.0014589077 -0.14488658 0.10723058 -0.010576743
-0.11028927 -0.14997837 -0.0056242677 -0.010787193 0.04805662 0.28015086 -0.017539622 0.08007744
0.0018834611 0.027949901 -0.16515504 0.07402192 0.026984368 -0.09968292 0.1841508 0.13638984
-0.041758996 -0.082081705 0.093068786 0.14202313 0.15370405 -0.06657398 0.17796595 0.11498445
0.2715251 0.06074512 -0.116667725 -0.1868126 0.10734819 -0.11639055 0.10407912 0.11543431
0.029925395 0.01972902 0.12113036 0.0073798187 -0.11450094 -0.09036014 0.1481585 0.15283793
0.0030478681 -0.11454759 -0.043126814 -0.066560246 -0.1075246 0.011427164 -0.083005905 0.016429622
0.042094484 0.12833542 -0.034194898 0.059800938 0.17939977 -0.1321724 -0.100652784 0.17072588
-0.053430106 -0.058493577 -0.10569026 -0.16620082 -0.033135902 0.032366093 -0.055047646 0.056679487
-0.07161478 -0.007472506 -0.030962573 0.1405202 -0.07967631 -0.12722844 -0.14517026 0.11637561
0.30930653 -0.13360068 0.134337 -0.17078558 0.115331516 -0.0129724415 0.15211397 -0.18423751
0.13265541 0.0136091355 -0.15178064 0.021379473 -0.15718944 0.15415017 0.19161838 0.03243595
0.11259108 0.045799643 0.010182434 -0.11097813 -0.16789465 -0.09560862 0.023333695 -0.100799896
0.09597375 -0.14196265 0.08857249 -0.072942354 0.12827288 -0.01689733 0.11220748 0.15911299
0.013090035 0.07016235 0.09317087 0.17761752 0.10265692 0.13154162 -0.13642476 0.16523956
0.12343401 0.022715116 -0.20266318 0.09559809 -0.094363235 0.16938597 -0.0059599224 0.032109823
0.36878428 -0.09134668 0.015054474 -0.15842731 0.18104383 0.2148954 -0.11136399 -0.12895948
-0.09516376 0.048940625 -0.09323564 0.1704804 0.103309855 0.22688648 0.12758146 -0.110947885
0.06079489 0.20164028 0.12803747 -0.1316679 -0.15728475 0.046611257 0.103694 0.06670674
-0.07730421 0.112075366 -0.01730237 -0.12716506 -0.14752923 -0.08520723 0.17735901 -0.09653209
-0.13849601 0.052424368 0.009225285 -0.08780823 0.10265929 -0.15378565 -0.10879751 0.10859305
-0.066723764 0.13995981 0.030141097 0.048319254 -0.12313901 0.010865292 0.17335747 -0.041370988
00000000: 7b10 a0be 3876 1dbe 00ff b83d 6fbf 093e
00000010: 7c44 4d3e 2584 133e 0acf d53d 4074 b23d
00000020: dbde 54bd c17b f4bd f925 12be 7b2f 54bd
00000030: 7173 3a3e 0884 e23c df4f ae3c 0c0b efbd
00000040: 50f7 d73e 9210 cdbd 998c 8b3d ca73 d1bc
00000050: c977 d83d bee9 dfbd 1858 403e a078 3dbe
00000060: 3d7e 383e 0341 70bd 49d9 74be f3de ff3c
00000070: 8200 5ebd 9e08 5cbe 5e21 64bc deea cebd
00000080: ce39 083d 9192 83bd 0afb 02bb 644a cd3d
00000090: 2c4a b93d 2466 93bc ab8d ae3c 8248 27be
000000a0: 3334 78bd d9d4 253e d15b f43d 7332 e3bb
000000b0: e343 f8bb 14b3 25be fa2b 363e 0f93 2cbe
000000c0: af84 e23c b866 3bbe a28f 80bd fe18 e53d
000000d0: 4c49 303d 7102 09be f367 a8bd c657 8abd
000000e0: 0fc5 5fbd def3 a9bd 8615 d8bd 76d0 cebd
000000f0: 5c0f 433e 243d 943e d9e9 0a3e e179 153e
00000100: 7fea 133e 6128 71be 0db0 4c3c 4eeb c03d
00000110: 70ef d5bd 661b 123e 5d17 05bb 8b01 1b3e
00000120: e97f b9bc 7b16 3c3c e9cf dfbd 41b3 513d
00000130: 3a02 653d 493e 523c 2136 623e 2633 e03d
00000140: 3bd8 7c3c 0097 9e3d a432 adbd 9cac 173e
00000150: d238 bf3a 265d 14be b59b db3d 134a 2dbc
00000160: 57df e1bd ee93 19be c74b b8bb c4bc 30bc
00000170: 05d7 443d ef6f 8f3e 41af 8fbc a4ff a33d
00000180: 78de f63a 31f7 e43c 671e 29be ce98 973d
00000190: 520e dd3c 8f26 ccbd 0792 3c3e c7a9 0b3e
000001a0: 7b0b 2bbd 741a a8bd d99a be3d 836e 113e
000001b0: 9864 1d3e f057 88bd b53c 363e f87c eb3d
000001c0: 5705 8b3e e0cf 783d 7def eebd cd4b 3fbe
000001d0: 5ed9 db3d 2b5e eebd 6f27 d53d d368 ec3d
000001e0: 1a26 f53c c19e a13c 3213 f83d 68d2 f13b
000001f0: 787f eabd bd0e b9bd ddb6 173e 8c81 1c3e
00000200: bebe 473b ed97 eabd bea5 30bd bd50 88bd
00000210: dc35 dcbd 0039 3b3c 00ff a9bd 6a97 863c
00000220: 446b 2c3d 5c6a 033e f30f 0cbd d4f1 743d
00000230: 93b4 373e 3458 07be 0c23 cebd c4d2 2e3e
00000240: 87d9 5abd f696 6fbd 2374 d8bd 8c30 2abe
00000250: 83b9 07bd 4f92 043d a479 61bd c028 683d
00000260: c5aa 92bd ecdb f4bb 39a5 fdbc 87e4 0f3e
00000270: 552d a3bd 2c48 02be 83a7 14be 5656 ee3d
00000280: 6d5d 9e3e 9ece 08be a38f 093e 6ae2 2ebe
00000290: ee32 ec3d 5d8a 54bc c4c3 1b3e c2a8 3cbe
000002a0: d2d6 073e daf8 5e3c 626c 1bbe 0124 af3c
000002b0: 45f6 20be 8bd9 1d3e 9c37 443e 8fdb 043d
000002c0: 2796 e63d 6898 3b3d 39d4 263c 8048 e3bd
000002d0: 93ec 2bbe 74ce c3bd 4e26 bf3c 2d70 cebd
000002e0: e38d c43d a85e 11be 7e65 b53d cd62 95bd
000002f0: f759 033e 456c 8abc 09cd e53d 84ee 223e
00000300: 9677 563c 47b1 8f3d 5ed0 be3d 5ee1 353e
00000310: cb3d d23d d9b2 063e efb2 0bbe 8f34 293e
00000320: f8ca fc3d 0d15 ba3c f086 4fbe eec8 c33d
00000330: 8341 c1bd 8473 2d3e 744b c3bb 9785 033d
00000340: 4bd1 bc3e f813 bbbd 0aa7 763c c53a 22be
00000350: 8e63 393e 8a0d 5c3e ce12 e4bd f40d 04be
00000360: 38e5 c2bd f775 483d 54f2 bebd 6a92 2e3e
00000370: 1e94 d33d ee54 683e b7a4 023e a538 e3bd
00000380: 1004 793d ca7a 4e3e 411c 033e f3d3 06be
00000390: 410f 21be 72eb 3e3d 855d d43d 8b9d 883d
000003a0: ab51 9ebd c587 e53d b3bd 8dbc 8f37 02be
000003b0: e711 17be 2181 aebd 9a9d 353e 9eb2 c5bd
000003c0: e6d1 0dbe efba 563d a625 173c cdd4 b3bd
000003d0: 093f d23d fc79 1dbe 3bd1 debd 0866 de3d
000003e0: 78a6 88bd a051 0f3e 76ea f63c 69ea 453d
000003f0: 4e30 fcbd 5604 323c 9f84 313e a074 29bd

arith.constant16 f4 [16, 2, 2, 16]
0.25926825 -0.032709967 -0.07239206 0.31983966 -0.16054766 0.19984548 -0.13076986 -0.091178454
0.14520578 0.25789478 -0.1513635 0.1583924 -0.13075982 -0.08604266 0.23661906 -0.017352622
-0.23964417 -0.1891027 -0.41560492 -0.0051624486 -0.25695914 -0.18313155 -0.27716047 -0.24444184
-0.40305898 -0.36817884 -0.38668135 -0.06849616 -0.25067523 -0.14066944 -0.16594142 -0.1547026
0.09725619 -0.06822828 0.24503872 0.35152885 -0.03697154 0.17073503 -0.2081477 0.2178899
-0.14053194 0.0757263 -0.2746577 0.15716162 -0.02502919 -0.29146135 0.12164805 0.187083
-0.37075618 -0.36554784 -0.257742 -0.2794114 -0.15223512 -0.20602421 -0.0061894953 -0.37885973
-0.39965537 -0.30806357 -0.13866848 -0.32942533 -0.47635546 -0.20655046 -0.35777873 -0.15859142
-0.15255298 -0.0764074 0.12977414 -0.06844761 -0.16251121 -0.08586756 0.08870471 -0.17956033
0.1903571 -0.08141946 0.03920328 0.21916524 -0.0732951 0.11934737 0.031948075 -0.15707828
0.17199531 0.1107502 0.047351144 -0.015191902 0.19374222 0.15712175 -0.12932204 0.105851695
-0.17121111 -0.12590876 -0.1280337 0.40153107 -0.21080075 0.03140812 0.11084054 0.04980762
0.010004429 -0.14322613 -0.2385486 0.07304427 -0.09754676 0.030317703 -0.17827544 0.0074665127
-0.15658917 0.013508807 -0.022392776 0.18454318 -0.13643992 0.16109744 -0.10211801 0.12521674
-0.17058784 0.21094967 0.07788902 -0.15316041 -0.14345805 -0.032059103 0.06828651 -0.058852065
0.19928344 0.21065241 0.26005796 0.08320872 0.043268025 0.111609854 0.16180368 -0.06987011
0.098542176 -0.2073501 -0.19586226 0.04342956 -0.011445973 -0.18255553 0.018747646 0.19097438
-0.09279355 -0.0029827834 -0.3089809 -0.08808581 -0.13561691 -0.08458034 0.06890065 -0.23038684
0.19171187 -0.043059763 0.12306181 0.020641532 0.08577404 -0.16583513 -0.2069291 -0.084024884
-0.09656476 0.12415798 -0.3896094 0.036880992 -0.22772451 -0.14267527 -0.02814007 0.072726965
-0.030926311 0.045566536 -0.07529351 -0.21502441 -0.12900622 -0.13459064 0.043820176 -0.08263796
-0.11905891 0.14116888 -0.23485674 0.12853305 0.12525676 -0.19022249 -0.2115261 -0.21249716
0.107566215 -0.03407826 0.11630469 -0.10001536 0.13393977 -0.08592669 -0.040679593 0.053526256
0.11806269 -0.04774482 -0.37297782 -0.1732006 -0.23837607 0.047499195 0.122452565 -0.22378077
-0.21709992 -0.08742243 0.17002822 0.04773692 -0.07617607 -0.13031627 0.21305014 0.111984484
-0.087277204 0.008657698 -0.13729073 -0.01658513 0.18896341 0.19106004 -0.11431933 -0.024049427
-0.18433686 0.17557283 -0.1365521 0.07311467 0.19591407 0.18312639 -0.18484104 -0.20482883
-0.021685068 -0.10597815 -0.16992766 -0.0727154 0.13081446 0.19553332 -0.07392992 0.036435276
-0.20616779 -0.10048046 -0.18383321 -0.08166269 -0.095356904 0.02429107 0.17784713 0.20019464
0.16619994 -0.15544553 -0.026446154 0.16876195 -0.21296792 -0.108503975 -0.17402847 -0.1575689
-0.01378611 -0.038792685 0.06447155 0.070319064 -0.20047328 0.11900361 0.18100737 0.1861641
0.10406184 0.17423967 0.08757057 -0.11837448 -0.16610304 -0.12593356 0.060144432 0.042528808
00000000: cfbe 843e e3fa 05bd 4a42 94bd 06c2 a33e
00000010: 9b66 24be 4ba4 4c3e 89e8 05be c5bb babd
00000020: d3b0 143e c90a 843e 09ff 1abe 9e31 223e
00000030: e7e5 05be 2237 b0bd 444c 723e 1627 8ebc
00000040: 4865 75be 23a4 41be 2bca d4be c229 a9bb
00000050: 2690 83be d686 3bbe fae7 8dbe f64e 7abe
00000060: bf5d cebe f081 bcbe 19fb c5be b747 8cbd
00000070: 8158 80be a60b 10be 8cec 29be 5c6a 1ebe
00000080: 412e c73d 45bb 8bbd 6eeb 7a3e 97fb b33e
00000090: 786f 17bd 2ad5 2e3e ac24 55be 881e 5f3e
000000a0: 9be7 0fbe 6416 9b3d ef9f 8cbe faee 203e
000000b0: 040a cdbc 6c3a 95be 9d22 f93d b092 3f3e
000000c0: c1d3 bdbe 1629 bbbe c2f6 83be 030f 8fbe
000000d0: 86e3 1bbe 03f8 52be 40d1 cabb e7f9 c1be
000000e0: a19f ccbe 82ba 9dbe 1cff 0dbe 70aa a8be
000000f0: dde4 f3be f781 53be c62e b7be ca65 22be
00000100: d936 1cbe 7c7b 9cbd 83e3 043e 432e 8cbd
00000110: 5769 26be 55db afbd d1aa b53d aade 37be
00000120: f9ec 423e 3fbf a6bd 9e93 203d da6c 603e
00000130: be1b 96bd 656c f43d fcdb 023d 21d9 20be
00000140: 8a1f 303e 00d1 e23d 46f3 413d 75e7 78bc
00000150: 5c64 463e 86e4 203e ff6c 04be c6c8 d83d
00000160: f751 2fbe 3aee 00be 441b 03be 7b95 cd3e
00000170: 27dc 57be cda5 003d 5d00 e33d 1303 4c3d
00000180: 9ee9 233c dfa9 12be 1646 74be 3c98 953d
00000190: 99c6 c7bd d55c f83c d68d 36be a6a9 f43b
000001a0: e958 20be 0b54 5d3c 0e71 b7bc e3f8 3c3e
000001b0: e8b6 0bbe baf6 243e 3f23 d1bd d138 003e
000001c0: 94ae 2ebe 3103 583e 4784 9f3d 15d6 1cbe
000001d0: abe6 12be 6850 03bd ccd9 8b3d dd0e 71bd
000001e0: f510 4c3e 44b5 573e 5126 853e 5569 aa3d
000001f0: d039 313d b593 e43d ddaf 253e 0f18 8fbd
00000200: 7bd0 c93d 9653 54be 1e90 48be 32e3 313d
00000210: e487 3bbc d6ef 3abe aa94 993c ca8e 433e
00000220: 8b0a bebd cd7a 43bb bf32 9ebe 5566 b4bd
00000230: 29df 0abe 7538 adbd c91b 8d3d 87ea 6bbe
00000240: 1e50 443e 6f5f 30bd d507 fc3d 6e18 a93c
00000250: 4daa af3d afd0 29be 39e5 53be 3d15 acbd
00000260: bfc3 c5bd 8a46 fe3d e27a c7be 8610 173d
00000270: 9d30 69be 7719 12be 0186 e6bc e0f1 943d
00000280: 2d59 fdbc faa3 3a3d 7c33 9abd 5c2f 5cbe
00000290: 351a 04be 21d2 09be c97c 333d 173e a9bd
000002a0: 28d5 f3bd 938e 103e 497e 70be 2b9e 033e
000002b0: 4f43 003e afc9 42be 4c9a 58be db98 59be
000002c0: ad4b dc3d a595 0bbd 2731 ee3d dad4 ccbd
000002d0: 8227 093e 55fa afbd a59f 26bd 593e 5b3d
000002e0: daca f13d 1390 43bd f3f6 bebe 805b 31be
000002f0: db18 74be 848e 423d 69c8 fa3d c926 65be
00000300: 714f 5ebe 880a b3bd e11b 2e3e ca87 433d
00000310: 3302 9cbd a171 05be d129 5a3e 1f58 e53d
00000320: 64be b2bd 04d9 0d3c f195 0cbe 8add 87bc
00000330: a07f 413e 3ea5 433e 4120 eabd 4e03 c5bc
00000340: cdc2 3cbe 5dc9 333e 50d4 0bbe 25bd 953d
00000350: b39d 483e 7c85 3b3e f846 3dbe a6be 51be
00000360: e2a4 b1bc 130b d9bd 8401 2ebe d0eb 94bd
00000370: 3af4 053e e339 483e 9268 97bd 283d 153d
00000380: a61d 53be b3c8 cdbd c63e 3cbe c53e a7bd
00000390: 7b4a c3bd 11fe c63c 8f1d 363e d3ff 4c3e
000003a0: 5130 2a3e 1d2d 1fbe 9ba5 d8bc efcf 2c3e
000003b0: 4314 5abe 5537 debd 8534 32be be59 21be
000003c0: 23df 61bc 14e5 1ebd a909 843d 7103 903d
000003d0: de48 4dbe 2ab8 f33d ff59 393e cda1 3e3e
000003e0: 601e d53d e26b 323e 3358 b33d 526e f2bd
000003f0: ea16 2abe baf4 00be 025a 763d b032 2e3d

arith.constant17 f4 [16, 3, 3, 16]
-0.10597069 0.085147955 0.047922537 -0.09464532 0.003862125 0.070365004 0.011269983 -0.038791843
0.02350659 0.1250868 0.07461248 -0.15631044 -0.115636 0.13540463 -0.21464726 0.12893209
0.11629036 0.062424496 0.07625169 0.07896268 -0.10587071 -0.1028183 -0.14123403 0.08743972
-0.10111878 0.2220215 -0.12204572 -0.13499148 0.051723897 -0.0014136788 0.09830791 -0.04090006
-0.069564775 0.10406629 -0.057020668 0.1265375 0.054137975 0.10334765 0.081541374 -0.11457432
-0.13785385 0.17021854 -0.046316624 -0.15179643 -0.14435919 -0.14072047 -0.13143228 -0.012080401
-0.08171897 -0.120155744 -0.040803056 -0.025780777 -0.030305803 0.11349169 0.23198494 0.091566525
0.050697964 -0.19432779 0.03624587 0.070592165 0.08621759 0.13204846 -0.0022682548 -0.06190972
-0.0777341 0.01953951 -0.10627954 -0.044199217 -0.07836011 -0.03002935 -0.01112747 -0.12187598
0.058343224 -0.102382936 -0.16223288 0.08493716 -0.09753229 -0.11709027 0.08446782 0.065967456
-0.0057944665 0.07021569 -0.044656783 -0.017862808 0.04537912 0.032277714 0.027278194 0.0022619665
-0.08743314 -0.111784555 -0.12862284 0.034491077 -0.009583682 0.03329905 0.037618138 0.007392671
-0.08229446 0.0559052 -0.1300766 0.084215246 -0.14080948 0.07938784 -0.052246634 -0.10257933
0.08213335 -0.30640012 -0.12760681 -0.1181461 0.06949924 0.11989555 0.025240265 -0.11368783
0.07373641 -0.020653931 -0.000805141 -0.010604437 0.016850162 -0.14090276 0.114698805 0.08138015
0.023137027 -0.2217383 -0.111318596 -0.124683335 -0.06899127 -0.08224891 0.06132144 0.0049094944
-0.049301047 -0.08947994 0.062898874 0.08885924 0.028412024 0.120038494 0.08581052 0.028749822
-0.11394197 -0.35215393 -0.029372592 -0.2934147 0.0051482036 0.06978678 0.123358205 -0.11644383
0.06607221 -0.088917114 0.14556473 0.025941364 -0.065833434 -0.1379546 0.013954986 0.07494112
-0.017181821 0.14963289 0.12067958 0.1373928 -0.07061631 0.14578298 -0.03129587 -0.008310575
0.15226032 -0.119626716 -0.08504242 0.007812506 0.011679423 0.11551801 0.07364663 0.06576169
-0.025446499 -0.08257163 -0.08077341 -0.11175195 0.0041690087 -0.02976589 0.091832355 -0.00997121
0.053870175 0.030626263 0.032373637 -0.059837896 0.0675368 -0.11062071 -0.07706901 -0.14554037
0.11895868 0.11756103 -0.0022377933 -0.040056083 0.0392209 0.1116505 0.021194888 -0.042899203
0.1400346 -0.004555725 0.03814069 -0.03252096 0.08578229 -0.012667893 -0.14183848 -0.0129481945
0.15747038 -0.08576224 0.101002134 0.14726476 0.07115762 0.07765346 -0.0012909857 0.070368364
-0.037882775 0.025614537 -0.12053184 0.12912434 -0.013804848 -0.011510431 -0.005054247 0.025777228
-0.12071184 0.1353221 -0.05952362 -0.11684618 0.12762783 -0.043995425 0.08246353 0.13512774
0.018218055 -0.0641695 -0.033104513 0.0672123 -0.001829778 -0.063666046 0.12602392 0.060305003
-0.019997854 0.060141455 0.04913442 0.08658879 -0.0034242137 0.045186665 0.0090278145 0.13930346
-0.04286054 0.034892842 0.1282744 0.007640873 -0.123544216 -0.08288301 -0.116907574 0.050405122
-0.029572923 -0.071138814 -0.020041138 -0.09478204 0.0015266631 -0.0039831204 -0.033751138 0.09230722
00000000: 2907 d9bd 0d62 ae3d 6c4a 443d 68d5 c1bd
00000010: b51b 7d3b 871b 903d bca5 383c 32e4 1ebd
00000020: e490 c03c c116 003e 6ece 983d d80f 20be
00000030: 91d2 ecbd 83a7 0a3e 7ecc 5bbe c606 043e
00000040: a429 ee3d d4b0 7f3d d929 9c3d 30b7 a13d
00000050: bed2 d8bd 6792 d2bd a79f 10be 9913 b33d
00000060: 5d17 cfbd 9b59 633e 1bf3 f9bd 353b 0abe
00000070: 70dc 533d 304b b9ba a855 c93d d286 27bd
00000080: fa77 8ebd b520 d53d 818e 69bd 0c93 013e
00000090: c8bf 5d3d efa7 d33d 2aff a63d f1a5 eabd
000000a0: 8f29 0dbe c54d 2e3e 80b6 3dbd 8670 1bbe
000000b0: e5d2 13be 0719 10be 2f96 06be e0ec 45bc
000000c0: 465c a7bd 3714 f6bd 1b21 27bd 3532 d3bc
000000d0: e043 f8bc 556e e83d 768d 6d3e 3b87 bb3d
000000e0: aba8 4f3d ddfd 46be 8d76 143d a092 903d
000000f0: d992 b03d b637 073e 00a7 14bb 0c95 7dbd
00000100: 0e33 9fbd 5311 a03c 16a9 d9bd 3d0a 35bd
00000110: 447b a0bd 1d00 f6bc fe4f 36bc 1d9a f9bd
00000120: 4ef9 6e3d 25ae d1bd 6020 26be 89f3 ad3d
00000130: 02bf c7bd 06cd efbd 77fd ac3d f219 873d
00000140: 82df bdbb 3ecd 8f3d 08ea 36bd 0655 92bc
00000150: 75df 393d a335 043d 8576 df3c 803d 143b
00000160: 2510 b3bd 4def e4bd b5b5 03be 8446 0d3d
00000170: e004 1dbc 9664 083d 7a15 1a3d 383e f23b
00000180: ff89 a8bd dafc 643d cd32 05be 0b79 ac3d
00000190: 5c30 10be 1896 a23d 9100 56bd 1d15 d2bd
000001a0: 8835 a83d 7ae0 9cbe 5cab 02be 95f6 f1bd
000001b0: 9e55 8e3d cc8b f53d acc4 ce3c 2ad5 e8bd
000001c0: 1d03 973d 6f32 a9bc 1910 53ba 3cbe 2dbc
000001d0: 5a09 8a3c d048 10be 35e7 ea3d a3aa a63d
000001e0: dd89 bd3c 5d0f 63be 01fb e3bd fa59 ffbd
000001f0: 4c4b 8dbd 1e72 a8bd 312c 7b3d d3df a03b
00000200: e5ef 49bd 4241 b7bd 20d1 803d d5fb b53d
00000210: 55c0 e83c bed6 f53d 6dbd af3d bf84 eb3c
00000220: 685a e9bd 854d b4be ca9e f0bc 743a 96be
00000230: 43b2 a83b 5fec 8e3d 3aa3 fc3d 1a7a eebd
00000240: de50 873d 2d1a b6bd ec0e 153e fc82 d43c
00000250: aed3 86bd f843 0dbe 74a3 643c bb7a 993d
00000260: e4c0 8cbc 5d39 193e db26 f73d b3b0 0c3e
00000270: 499f 90bd 2248 153e 1930 00bd 1429 08bc
00000280: 21ea 1b3e dafe f4bd b82a aebd 0600 003c
00000290: 0d5b 3f3c b594 ec3d 0bd4 963d 11ae 863d
000002a0: 2d75 d0bc 511b a9bd 886c a5bd 35de e4bd
000002b0: 2e9c 883b 99d7 f3bc 9a12 bc3d 495e 23bc
000002c0: f9a6 5c3d eee3 fa3c 389a 043d 9518 75bd
000002d0: bc50 8a3d 1c8d e2bd 5bd6 9dbd 8908 15be
000002e0: 9ca0 f33d d6c3 f03d f1a7 12bb d911 24bd
000002f0: 18a6 203d 04a9 e43d e7a0 ad3c 13b7 2fbd
00000300: 3b65 0f3e 3148 95bb 6a39 1c3d b334 05bd
00000310: a0ae af3d ff8c 4fbc 1b3e 11be aa24 54bc
00000320: ea3f 213e 1da4 afbd 35da ce3d 93cc 163e
00000330: 16bb 913d c708 9f3d 4b36 a9ba 4a1d 903d
00000340: f82a 1bbd 94d5 d13c 66d9 f6bd 2c39 043e
00000350: bb2d 62bc 3f96 3cbc 199e a5bb c42a d33c
00000360: c537 f7bd e091 0a3e 0acf 73bd 0d4d efbd
00000370: dfb0 023e 8c34 34bd a4e2 a83d ed5e 0a3e
00000380: 083e 953c 4c6b 83bd 9998 07bd 9aa6 893d
00000390: 29d5 efba 5863 82bd 6a0c 013e 6102 773d
000003a0: 8ad2 a3bc e356 763d 2c41 493d 7755 b13d
000003b0: c668 60bb a715 393d 66e9 133c 91a5 0e3e
000003c0: 898e 2fbd cceb 0e3d 5d5a 033e 4a60 fa3b
000003d0: c004 fdbd 91be a9bd 3d6d efbd 9a75 4e3d
000003e0: ea42 f2bc 3ab1 91bd 502d a4bc 161d c2bd
000003f0: 501a c83a d684 82bb a23e 0abd 910b bd3d

arith.constant18 f4 [16, 2, 2, 32]
-0.012820009 0.09253001 -0.34747517 0.13460706 0.07162076 -0.15160838 0.1555645 -0.03716063
0.16707474 -0.13043784 0.054357324 -0.01953799 0.08177166 0.07066082 -0.13758355 -0.10626267
-0.0664761 -0.005214915 0.16226736 0.1495118 0.17235236 0.09970236 -0.15613824 -0.22599427
-0.1892528 -0.06268868 -0.08685506 0.048150286 0.16788885 -0.21165921 0.0095499605 -0.07461906
0.10187932 0.037880868 -0.1406941 -0.13730665 0.0322946 -0.15799186 0.111150615 -0.000562625
0.01124473 0.09922845 0.36850053 -0.10989853 -0.060283046 -0.027856037 0.086102046 0.08339887
-0.10600544 0.17268299 0.019958742 -0.07585139 -0.12110854 0.100678995 0.058886286 -0.19786674
-0.16002633 0.106589004 0.018185234 -0.1693764 0.1416971 -0.12678564 0.0039585494 0.15624031
0.049498092 -0.089447 -0.20360106 0.040476084 0.052310873 0.16680992 0.18401444 -0.09352086
0.00891752 0.017039847 0.1615463 0.049228918 0.117348425 0.09122154 -0.11641085 -0.17641339
-0.17840038 0.077978 0.043618005 -0.07317346 -0.15884474 -0.061360054 -0.042837158 -0.16453631
0.14660728 0.10690117 -0.0008277564 -0.093242586 0.09012369 0.013347868 0.14373143 -0.0027320136
0.16338311 -0.052287813 -0.03890175 -0.20923813 0.024391543 -0.07285402 -0.07533313 -0.16454336
0.01259836 -0.15871546 -0.06860944 -0.04577749 0.16091296 0.067597516 0.015326604 0.09297133
-0.18081729 -0.10565484 0.13320251 -0.19186637 0.11713298 0.09018932 0.05607879 -0.099166326
-0.15457632 0.09839244 -0.10610318 0.09381834 0.096846655 -0.069561735 -0.024397716 0.014650108
0.15114293 -0.16722077 0.1512518 0.49640128 -0.14143805 0.14630806 -0.15320882 -0.05712185
-0.13149509 0.07588057 0.09121792 0.033798706 -0.12532192 0.025475832 -0.056076005 -0.17278115
-0.053895466 -0.078275815 -0.13341805 -0.008123 0.16082112 -0.052284133 -0.10302933 0.07776347
-0.026292134 -0.15700614 -0.112926774 -0.08529733 -0.19022682 -0.064861186 0.13173187 -0.13615881
-0.08140525 -0.088073716 -0.008714416 -0.2614848 0.014708662 -0.010404077 -0.016192285 0.12378751
0.023682384 -0.12884201 -0.14606088 0.047390122 0.07981994 -0.064838886 0.1956615 0.16090946
-0.09519587 0.07665285 -0.14843409 0.13755006 0.120198786 -0.074539654 -0.13574252 0.0033402208
-0.05439097 0.17571583 0.13778128 0.002867731 0.06943875 -0.029940955 0.17476425 0.087160826
0.06661112 -0.07701694 0.06307039 0.21395235 0.11085371 -0.039454658 0.009610694 0.07960732
0.11124083 -0.0674308 0.13054416 -0.1541667 -0.04514455 0.028842352 -0.10081124 0.13286361
-0.08507723 -0.12920175 -0.047032412 0.018727748 0.13820048 -0.16060807 -0.033275697 0.1777607
-0.14184938 -0.12652288 -0.114023395 -0.0037638396 0.10095275 0.06762679 0.14455076 0.11929699
-0.14067237 -0.18836439 0.16944414 -0.21952847 0.07354611 0.09547231 0.07220447 0.123993516
-0.19324546 0.13651395 0.09269735 -0.018111126 0.08320275 0.0008189527 -0.025970824 -0.05046537
-0.043020323 -0.096144296 0.041812804 0.1601163 -0.010654388 -0.06376846 -0.14082928 -0.18237154
0.11427588 0.054526854 0.13896266 0.036013927 0.123677894 0.11355809 -0.11190346 0.04304023
00000000: 040b 52bc 6080 bd3d 44e8 b1be 6fd6 093e
00000010: e8ad 923d 3a3f 1bbe 4d4c 1f3e bf35 18bd
00000020: a415 2b3e 7f91 05be c9a5 5e3d 230e a0bc
00000030: e677 a73d 9fb6 903d b4e2 0cbe 3ea0 d9bd
00000040: 9f24 88bd e1e1 aabb 6a29 263e 9f19 193e
00000050: 237d 303e c030 cc3d b4e2 1fbe 0b6b 67be
00000060: 7ccb 41be ec62 80bd 11e1 b1bd 3c39 453d
00000070: 0eeb 2b3e 31bd 58be 7077 1c3c e1d1 98bd
00000080: 1ba6 d03d f828 1b3d 1d12 10be 1d9a 0cbe
00000090: 5847 043d 9ec8 21be efa2 e33d 207d 13ba
000000a0: d13b 383c 4938 cb3d 1aac bc3e 7b12 e1bd
000000b0: 5beb 76bd 5832 e4bc 4556 b03d 07cd aa3d
000000c0: 6119 d9bd cfd3 303e 8480 a33c f957 9bbd
000000d0: c107 f8bd ca30 ce3d bf32 713d 949d 4abe
000000e0: f1dd 23be 564b da3d 33f9 943c 0271 2dbe
000000f0: 0b19 113e 18d4 01be b8b6 813b 76fd 1f3e
00000100: 83be 4a3d fd2f b7bd cc7c 50be 40ca 253d
00000110: ed43 563d 38d0 2a3e 486e 3c3e dd87 bfbd
00000120: ca1a 123c 2697 8b3c 656c 253e 43a4 493d
00000130: 5f54 f03d 5cd2 ba3d d068 eebd b6a5 34be
00000140: 97ae 36be eeb2 9f3d cba8 323d f8db 95bd
00000150: 32a8 22be ae54 7bbd 0476 2fbd 357c 28be
00000160: 3820 163e 00ef da3d cbfd 58ba f8f5 bebd
00000170: c592 b83d 04b1 5a3c 552e 133e 950b 33bb
00000180: e74d 273e bf2b 56bd 7157 1fbd 8542 56be
00000190: c6d0 c73c 7d34 95bd 4248 9abd 0e7e 28be
000001a0: 5a69 4e3c 4e86 22be 1b83 8cbd 2d81 3bbd
000001b0: 5ec6 243e 9170 8a3d 701c 7b3c c167 be3d
000001c0: 2b28 39be 9161 d8bd 3d66 083e 9e78 44be
000001d0: 6ae3 ef3d 2eb5 b83d e0b2 653d b717 cbbd
000001e0: 4149 1ebe fa81 c93d a04c d9bd d423 c03d
000001f0: 8a57 c63d 6276 8ebd b8dd c7bc 0207 703c
00000200: 36c5 1a3e ec3b 2bbe c0e1 1a3e 4f28 fe3e
00000210: 23d5 10be c8d1 153e c6e2 1cbe 9af8 69bd
00000220: a6a6 06be 4667 9b3d 76d0 ba3d 8370 0a3d
00000230: 6454 00be b1b2 d03c f4af 65bd 8bed 30be
00000240: 7ec1 5cbd 124f a0bd be9e 08be 5516 05bc
00000250: 4bae 243e e327 56bd 0b01 d3bd 7442 9f3d
00000260: 9a62 d7bc 38c6 20be 2746 e7bd 5eb0 aebd
00000270: d2ca 42be f1d5 84bd b8e4 063e 376d 0bbe
00000280: ccb7 a6bd fe5f b4bd e9c6 0ebc 56e1 85be
00000290: 9afc 703c dd75 2abc afa5 84bc 4e84 fd3d
000002a0: 8f01 c23c 29ef 03be fc90 15be 251c 423d
000002b0: a378 a33d 40ca 84bd 7d5b 483e 73c5 243e
000002c0: 0df6 c2bd 2bfc 9c3d 1bff 17be ecd9 0c3e
000002d0: c82a f63d 3fa8 98bd 1600 0bbe 9be7 5a3b
000002e0: 11c9 5ebd daee 333e 8916 0d3e 8bf0 3b3b
000002f0: e735 8e3d bc46 f5bc 66f5 323e 6081 b23d
00000300: 696b 883d 0fbb 9dbd 0c2b 813d 5316 5b3e
00000310: 4507 e33d 359b 21bd 2c76 1d3c 2a09 a33d
00000320: 3bd2 e33d 2919 8abd 5ead 053e e0dd 1dbe
00000330: 7ee9 38bd cc46 ec3c 2076 cebd 660d 083e
00000340: f93c aebd 774d 04be 0fa5 40bd ef6a 993c
00000350: 6d84 0d3e 7176 24be 194c 08bd e706 363e
00000360: f740 11be 378f 01be 1985 e9bd c0aa 76bb
00000370: 51c0 ce3d ea7f 8a3d 1d05 143e fb51 f43d
00000380: 6b0c 10be 98e2 40be c482 2d3e 12cc 60be
00000390: 589f 963d fd86 c33d f0df 933d 50f0 fd3d
000003a0: 23e2 45be 50ca 0b3e 1cd8 bd3d c95d 94bc
000003b0: 3466 aa3d fcae 563a c4c0 d4bc c7b4 4ebd
000003c0: 1436 30bd 4de7 c4bd e743 2b3d 87f5 233e
000003d0: be8f 2ebc 0a99 82bd 8d35 10be 9bbf 3abe
000003e0: 7909 ea3d 8d57 5f3d 3a4c 0e3e 5783 133d
000003f0: d64a fd3d 2591 e83d a42d e5bd f44a 303d

arith.constant19 f4 [32, 3, 3, 64]
-0.043926653 0.0038122702 -0.04662209 0.026212506 -0.046788722 0.03787931 -0.05194582 -0.032607153
-0.07797201 0.028870352 -0.0536572 -0.014795041 -0.026957672 -0.041467708 0.02305858 0.012359828
0.0028853687 -0.039517347 -0.052128773 0.040044952 -0.008398344 -0.012014787 0.057653718 -0.035404973
-0.05908745 -0.050078347 -0.090838484 -0.035742562 -0.065510705 0.02442243 0.05222672 0.02474134
0.06404378 -0.06182886 0.06928014 -0.03991788 -0.02450509 -0.048357345 0.045346748 0.02994802
0.052105322 -0.02723844 0.06950414 0.035822365 0.0728799 0.06277665 -0.071422264 -0.06914768
0.041954856 0.048147216 -0.034726046 0.03567618 -0.08648965 0.071994774 -0.054047287 -0.081647456
-0.06666151 -0.045737207 -0.057592068 -0.026136624 -0.0630489 -0.0781933 -0.106309325 -0.08159542
-0.059324868 -0.08083314 0.07801687 -0.016439246 0.029604036 0.047897972 -0.047203958 -0.052388646
0.047757126 0.019208131 0.044171307 0.032901093 0.02309177 -0.06287565 -0.08497336 0.037134968
-0.06904529 0.049044583 -0.07060862 -0.041393474 0.049575858 -0.06386394 -0.0098946495 -0.08791171
0.0115126595 -0.025616264 -0.06353083 -0.078455366 -0.07806505 0.027431022 -0.008580016 -0.084181115
-0.08098626 0.035433415 0.03871204 -0.045211002 -0.037268233 0.05867667 -0.00032856246 0.0033576034
0.007079375 -0.009979187 -0.079040185 0.0027210072 -0.06609604 0.036997765 0.018944437 -0.010780865
0.03437901 -0.09408086 0.007196695 0.06698796 0.020464467 0.023042763 0.057637393 -0.038127363
-0.02273417 0.0153704425 -0.106225364 0.050416432 -0.06767622 -0.06946227 0.018595723 -0.030863492
-0.0694739 0.026849598 0.07775353 0.011053301 0.024356222 0.015569891 -0.08617503 -0.04959765
0.033003315 -0.007949306 0.0049009863 0.065512665 0.060658854 -0.020013355 -0.07359364 -0.02714532
0.013559605 0.000381468 0.048150625 -0.01334426 -0.03491649 -0.009675018 0.0014140282 0.055722322
0.07025076 -0.066939086 0.044163913 -0.08126791 -0.054205313 -0.06998029 0.04218772 -0.00032827852
-0.050193477 -0.063190654 0.04990593 0.06914281 0.0013274499 0.026722023 -0.046915278 -0.058132797
-0.074959286 0.078345984 -0.037416294 0.0050449125 -0.06536418 -0.06859223 -0.07052756 0.05111811
-0.06540469 -0.012342857 0.03947469 0.031940505 -0.022536386 -0.06546519 0.04582891 -0.08339915
-0.004294141 0.023717536 -0.10469982 0.037706766 -0.028802108 -0.08443056 0.0484126 0.05540538
0.01575601 -0.040495243 -0.063473 0.0661981 0.019575289 -0.0010414986 -0.09886932 0.050059363
-0.00050596433 -0.05841857 -0.01798021 -0.04442588 0.013520157 -0.08931854 -0.008559107 -0.08878081
-0.1123253 0.06693402 0.02922393 -0.0690802 -0.057115827 0.08057552 -0.093515456 0.04317243
-0.039328236 -0.0711629 0.01498606 0.07846537 0.060121484 0.039209347 0.05067498 0.03931244
0.048341192 -0.060986295 0.016418904 0.054738674 0.07808978 0.05465051 -0.014823425 -0.03808056
0.021808688 -0.063375495 0.058784146 -0.07775515 -0.056755863 0.06794283 0.031542886 -0.035140563
-0.05743731 -0.05197745 0.04891255 -0.098273575 -0.0822674 0.046073258 0.01007662 -0.06625997
0.05373756 0.023162356 0.025531568 0.052625604 -0.047928095 0.0047853068 -0.08965547 -0.0731508
00000000: 6fec 33bd 48d7 793b cef6 3ebd 9cbb d63c
00000010: 88a5 3fbd 5627 1b3d 24c5 54bd 148f 05bd
00000020: caaf 9fbd 8481 ec3c a7c7 5bbd e666 72bc
00000030: 56d6 dcbc 0bda 29bd 59e5 bc3c e080 4a3c
00000040: 7418 3d3b f1dc 21bd fb84 55bd 2d06 243d
00000050: 3599 09bc abd9 44bc 4e26 6c3d ce04 11bd
00000060: af05 72bd f41e 4dbd 8709 babd cb66 12bd
00000070: 7a2a 86bd 8c11 c83c afeb 553d 5aae ca3c
00000080: 6329 833d 4240 7dbd bfe2 8d3d ee80 23bd
00000090: e6be c8bc 5a12 46bd 83bd 393d 8d55 f53c
000000a0: 646c 553d 2623 dfbc 3058 8e3d 79ba 123d
000000b0: 0f42 953d 0b91 803d d645 92bd 4d9d 8dbd
000000c0: dbd8 2b3d 0436 453d e63c 0ebd 3021 123d
000000d0: 7c21 b1bd ff71 933d b060 5dbd c836 a7bd
000000e0: d485 88bd f056 3bbd a9e5 6bbd 791c d6bc
000000f0: c81f 81bd cf23 a0bd b4b8 d9bd 801b a7bd
00000100: a2fe 72bd d88b a5bd 4fc7 9f3d 99ab 86bc
00000110: 2a84 f23c aa30 443d f058 41bd 7a95 56bd
00000120: fa9c 433d 5f5a 9d3c f9ec 343d 4cc3 063d
00000130: f42a bd3c f3c4 80bd 8306 aebd d61a 183d
00000140: 9e67 8dbd f9e2 483d 419b 90bd 348c 29bd
00000150: 0e10 4b3d 19cb 82bd 2b1d 22bc 0e0b b4bd
00000160: 989f 3c3c 33d9 d1bc 741c 82bd 35ad a0bd
00000170: 92e0 9fbd 06b7 e03c 3293 0cbc 2667 acbd
00000180: 20dc a5bd a122 113d 8490 1e3d 2c2f 39bd
00000190: 93a6 18bd f356 703d e842 acb9 3d0b 5c3b
000001a0: 1afa e73b be7f 23bc d2df a1bd ed52 323b
000001b0: 5c5d 87bd f88a 173d 5d31 9b3c 3aa2 30bc
000001c0: 01d1 0c3d 77ad c0bd 41d2 eb3b fc30 893d
000001d0: 19a5 a73c 2dc4 bc3c 3015 6c3d 702b 1cbd
000001e0: 033d babc 4fd4 7b3c af8c d9bd 7681 4e3d
000001f0: d499 8abd 3c42 8ebd 0f56 983c 6fd5 fcbc
00000200: 5548 8ebd b0f3 db3c 3e3d 9f3d e818 353c
00000210: b386 c73c db18 7f3c 897c b0bd e826 4bbd
00000220: 7c2e 073d ce3d 02bc 7498 a03b 812b 863d
00000230: 6b75 783d 0cf3 a3bc 43b8 96bd dd5f debc
00000240: 1b29 5e3c c5ff c739 9739 453d e2a1 5abc
00000250: 9804 0fbd f783 1ebc ea56 b93a 173d 643d
00000260: a1df 8f3d 5c17 89bd 38e5 343d ca6f a6bd
00000270: 6406 5ebd d451 8fbd 08cd 2c3d cc1c acb9
00000280: ad97 4dbd 1a6a 81bd 296a 4c3d bf9a 8d3d
00000290: d4fd ad3a 25e8 da3c 3c2a 40bd a81c 6ebd
000002a0: 4184 99bd dc73 a03d d441 19bd cb4f a53b
000002b0: a8dd 85bd 157a 8cbd c170 90bd 3961 513d
000002c0: e5f2 85bd b239 4abc 36b0 213d 0cd4 023d
000002d0: 3a9e b8bc 9d12 86bd 18b7 3b3d 2ccd aabd
000002e0: deb5 8cbb 474b c23c dc6c d6bd 6972 1a3d
000002f0: 66f2 ebbc eee9 acbd 4a4c 463d c0f0 623d
00000300: bf12 813c 57de 25bd 22fe 81bd df92 873d
00000310: 5b5c a03c e582 88ba ff7b cabd 0c0b 4d3d
00000320: b1a2 04ba 4f48 6fbd 3c4b 93bc e9f7 35bd
00000330: a683 5d3c a4ec b6bd 7f3b 0cbc b7d2 b5bd
00000340: cf0a e6bd b414 893d 0667 ef3c eb79 8dbd
00000350: 49f2 69bd c704 a53d 0885 bfbd 93d5 303d
00000360: a516 21bd dbbd 91bd 1788 753c 74b2 a03d
00000370: f241 763d fb99 203d 9190 4f3d 1506 213d
00000380: 6a01 463d c4cc 79bd f080 863c a935 603d
00000390: 89ed 9f3d 37d9 5f3d f3dd 72bc 5cfa 1bbd
000003a0: 22a8 b23c 03cb 81bd a5c7 703d 183e 9fbd
000003b0: d678 68bd 9c25 8b3d 1d33 013d 8def 0fbd
000003c0: 6343 6bbd 4ee6 54bd 8758 483d a843 c9bd
000003d0: d07b a8bd 50b7 3c3d 6818 253c 4fb3 87bd
000003e0: ea1b 5c3d fbbe bd3c 9427 d13c f28d 573d
000003f0: 4050 44bd 10ce 9c3b 499d b7bd 16d0 95bd

arith.constant20 f4 [16, 2, 2, 32]
0.16963391 -0.06069648 0.011704096 -0.030041924 -0.0615049 0.014543549 -0.09290447 0.08825915
-0.06997583 -0.12770432 -0.13047732 -0.014183472 0.0015254432 0.047006868 -0.09757909 0.01971766
0.05156504 -0.043537125 -0.04124282 0.1407663 0.14069104 -0.11820468 -0.18957658 0.045067552
-0.04604748 -0.0019284785 -0.11472474 -0.11152743 -0.0032231095 0.11041562 -0.13714233 0.08004833
0.051311158 -0.09418176 0.0685605 -0.08142249 0.11059904 -0.17556787 0.12899339 0.018104607
-0.16040495 -0.079257764 0.07291415 -0.105551854 -0.03640425 -0.186428 0.026172822 -0.05740129
-0.018312108 0.03459073 0.07808042 0.016584018 0.09301747 0.060135994 0.119975105 -0.12662901
0.055375066 -0.07747439 -0.15615799 -0.08726044 0.07975533 -0.002633798 -0.049675558 0.15808208
-0.1520404 -0.08169133 0.04249623 0.12546752 -0.00524748 -0.17124003 0.08655065 0.10048316
-0.010104657 0.16224751 0.15447302 0.06770882 -0.13038506 -0.1660702 0.14324373 -0.05713838
0.06670261 0.03378453 0.030661542 -0.081125416 0.12862301 -0.10434811 -0.14122462 -0.048773225
-0.024362994 0.093761526 0.032743923 -0.009491618 0.05835151 0.14971343 -0.016135572 -0.12345233
-0.06763562 -0.0867259 -0.1527573 -0.15871355 -0.02591047 -0.042234875 -0.100864045 0.030450592
-0.043762 0.14367284 0.1491182 -0.16660608 0.1409171 -0.20679738 -0.14891241 -0.011282325
-0.11361642 -0.07991628 -0.04023157 -0.077769056 -0.070521 -0.0721514 -0.0069337334 -0.19272497
-0.18596631 -0.15439613 -0.04031963 0.076160856 0.08342872 -0.030028446 -0.123481855 -0.10089073
-0.075240746 0.031139622 -0.091399334 -0.17368495 -0.119119406 -0.21352483 0.010576704 -0.035506614
0.20419116 -0.13083555 -0.18902265 -0.17109282 -0.06821725 0.39293402 -0.31573918 0.099917725
0.12239355 -0.0057699196 -0.14190651 0.12834762 -0.090519056 0.08646509 0.11450492 0.1569922
0.0011144595 0.28469807 -0.1285202 0.055474 -0.07378959 0.061103478 -0.021042433 0.02897975
-0.042960126 -0.022883274 -0.033337776 -0.07379582 0.0051885922 -0.07393412 0.06691148 -0.058502045
0.13950454 0.2178456 -0.028192736 -0.020152735 0.1160581 -0.05148185 0.0064789155 0.12074052
0.112152435 0.20508398 -0.049192563 0.15484004 0.02747721 -0.20678884 -0.018106569 -0.04719051
0.1797184 0.12709987 -0.11341721 -0.109993026 -0.07271929 -0.1160461 0.072910056 -0.02676387
-0.06709613 -0.02677252 0.053972963 0.22923356 0.13960356 -0.16209087 0.005993312 -0.12928528
0.05218861 0.050455317 -0.06892931 -0.096929364 -0.07013394 0.42968434 -0.0072410116 -0.12895513
0.09741309 0.047220115 0.018085977 -0.21029457 -0.022446666 0.07578642 0.15892608 0.07118828
-0.0928065 0.19151883 0.026023304 0.10196831 0.15587339 -0.14350103 0.017577708 0.059031397
-0.06200675 -0.06609789 0.07411298 0.2802413 0.18712912 -0.1924714 -0.18981214 0.17422715
0.20277713 0.21741603 -0.018052679 -0.014345883 -0.15590972 -0.17819484 0.17888509 -0.037943583
0.06335695 -0.15292239 0.23593903 -0.18382435 -0.03084701 -0.14493245 -0.06981215 -0.020546524
-0.009786805 0.05005402 -0.13829008 0.17299277 0.1182508 0.14851753 -0.035592936 -0.1804231
00000000: 83b4 2d3e df9c 78bd 89c2 3f3c 7b1a f6bc
00000010: 90ec 7bbd 1148 6e3c b344 bebd 37c1 b43d
00000020: 7d4f 8fbd ecc4 02be d99b 05be cb61 68bc
00000030: 61f1 c73a 468a 403d 8cd7 c7bd ee86 a13c
00000040: dd35 533d fc53 32bd 3bee 28bd 0a25 103e
00000050: 5011 103e 4c15 f2bd 5d20 42be c198 383d
00000060: 489c 3cbd 00c5 fcba cef4 eabd 7e68 e4bd
00000070: ce3a 53bb 9621 e23d 0a6f 0cbe 61f0 a33d
00000080: a62b 523d 5ee2 c0bd 7369 8c3d d6c0 a6bd
00000090: c081 e23d 10c8 33be d816 043e 1d50 943c
000000a0: 3241 24be e551 a2bd 0454 953d 922b d8bd
000000b0: 9f1c 15bd fbe6 3ebe 6368 d63c 9d1d 6bbd
000000c0: 4603 96bc 02af 0d3d a1e8 9f3d 35db 873c
000000d0: f17f be3d 2951 763d 82b5 f53d 09ab 01be
000000e0: f7d0 623d e5aa 9ebd e1e7 1fbe 9ab5 b2bd
000000f0: c356 a33d cc9b 2cbb 9978 4bbd 45e0 213e
00000100: 7bb0 1bbe c94d a7bd 8710 2e3d 8f7a 003e
00000110: 0df3 abbb 8c59 2fbe 7841 b13d 1dca cd3d
00000120: 018e 25bc 3624 263e 2d2e 1e3e ecaa 8a3d
00000130: a983 05be 4e0e 2abe 7cae 123e ef09 6abd
00000140: 619b 883d a661 0a3d ea2d fb3c 1525 a6bd
00000150: c0b5 033e 76b4 d5bd 309d 10be 6fc6 47bd
00000160: e794 c7bc 0b06 c03d 7e1e 063d bb82 1bbc
00000170: fe01 6f3d 7a4e 193e bf2e 84bc 93d4 fcbd
00000180: 8b84 8abd 599d b1bd 696c 1cbe ce85 22be
00000190: 3242 d4bc 7afe 2cbd cf91 cebd 8573 f93c
000001a0: c83f 33bd f91e 133e 71b2 183e c99a 2abe
000001b0: 924c 103e b1c2 53be 7f7c 18be 80d9 38bc
000001c0: baaf e8bd 26ab a3bd dcc9 24bd 6245 9fbd
000001d0: 506d 90bd 1dc4 93bd 5f34 e3bb b259 45be
000001e0: f46d 3ebe 051a 1ebe 3226 25bd 39fa 9b3d
000001f0: addc aa3d 37fe f5bc 0ee4 fcbd cd9f cebd
00000200: d217 9abd 8518 ff3c 932f bbbd 78da 31be
00000210: e0f4 f3bd 41a6 5abe e949 2d3c 626f 11bd
00000220: 7d17 513e c1f9 05be 278f 41be f532 2fbe
00000230: 7cb5 8bbd a62e c93e 91a8 a1be aaa1 cc3d
00000240: 78a9 fa3d 9811 bdbb f14f 11be 8f6d 033e
00000250: 0e62 b9bd 9c14 b13d 8e81 ea3d 90c2 203e
00000260: 0e13 923a f2c3 913e cd9a 03be b438 633d
00000270: ff1e 97bd a447 7a3d 2e61 acbc f166 ed3c
00000280: f5f6 2fbd b475 bbbc 318d 08bd 4322 97bd
00000290: 1105 aa3b c66a 97bd e308 893d d79f 6fbd
000002a0: 47da 0e3e eb12 5f3e 74f4 e6bc 5917 a5bc
000002b0: deaf ed3d a2de 52bd 154d d43b ce46 f73d
000002c0: 2db0 e53d 8901 523e 247e 49bd 638e 1e3e
000002d0: e317 e13c 74c0 53be 3a54 94bc d64a 41bd
000002e0: 1a08 383e 7826 023e 4847 e8bd 0644 e1bd
000002f0: daed 94bd 94a9 edbd de51 953d e73f dbbc
00000300: b269 89bd 0b52 dbbc c112 5d3d 34bc 6a3e
00000310: 3cf4 0e3e 26fb 25be 8c63 c43b 5c63 04be
00000320: b9c3 553d 3caa 4e3d cf2a 8dbd e782 c6bd
00000330: 62a2 8fbd 96ff db3e 0246 edbb d00c 04be
00000340: 8480 c73d e169 413d 0b29 943c 7657 57be
00000350: 12e2 b7bc e935 9b3d 85bd 223e 29cb 913d
00000360: 5611 bebd 831d 443e d32e d53c c3d4 d03d
00000370: 469d 1f3e eff1 12be 20ff 8f3c e8ca 713d
00000380: cafa 7dbd 555e 87bd 8cc8 973d ca7b 8f3e
00000390: c79e 3f3e 3917 45be 1d5e 42be 9a68 323e
000003a0: cfa4 4f3e 4fa2 5e3e 36e3 93bc ff0a 6bbc
000003b0: cca6 1fbe b578 36be a72d 373e bb6a 1bbd
000003c0: 4ac1 813d b097 1cbe 009a 713e 733c 3cbe
000003d0: deb2 fcbc 2c69 14be acf9 8ebd 2f51 a8bc
000003e0: d658 20bc 7205 4d3d ea9b 0dbe 0425 313e
000003f0: 7a2d f23d fb14 183e e6c9 11bd d5c0 38be
